DUDL_PythonCode/data/trainedModel.pt (torch, 217980 bytes, 8 tensors)

input.weight f4 [64, 784]
00000000: f33d 033d e07b 2f3c 2abd 01bd 8e6b 60bc
00000010: 6e9d b4bc 90eb 553b 4357 fabc 1c9f a83c
00000020: 787f 2c3c 30a8 033b 63d9 c5bc 4016 d13c
00000030: ca70 ae3c 09ca f83c 8171 0bbc 75ca 7b3c
00000040: 685b ab3c a643 fa3c 004a 0bb9 f43f 633c
00000050: 84ae 563c 107c dd3b 48f7 cabb 8e26 babc
00000060: f672 b93c 8ca6 a0bc feed a7bc 658c f5bc
00000070: 5c9e 893c 603b 013b 187d d33c d877 163c
00000080: 90ac c23b 288c bd3c 16c0 d5bc ab4d 843c
00000090: c061 c8bc c499 c83c 6319 bc3c 945d 093d
000000a0: 03cd 933b 4df9 133c aa08 4c3c 5b3e 073d
000000b0: c680 88bb e2f4 c1bc 972e cf3c 3a19 d4bc
000000c0: 59c4 6aba fba5 dcbb a29a f53c 87fe 04bd
000000d0: 1671 ad3c c004 9abc 2037 a83c fc6d 753c
000000e0: 6af4 13bc 2391 0abd c833 88bb 7614 e5bb
000000f0: 0fad e7bc 9776 d73c 1169 94bc 70a3 b93a
00000100: eb42 c6bc abc4 d03c 9d67 0b3d 406f eebc
00000110: 4b62 ef3c 7cee f23c 8383 d1bb 963c 4f3c
00000120: 3b0b df3c a050 83bc d45d 1ebc 116b 51bc
00000130: 939f 6f3c 0b15 b23c 4278 cdbc 8cce cb3c
00000140: a613 c63c bc90 113c e8de c93c 5807 703c
00000150: de54 e13c 633e b6bc 9c38 37bc 6723 d9bc
00000160: 030e 783c 28df 573c 761d cb3c 14e5 773b
00000170: 7ea9 8bbc b477 efbb ac9f 073d f64b 89bb
00000180: 4313 bf3c 9e90 423b 2388 0e3c 6fad d8bc
00000190: 1c3e cc3c 5496 58bc f532 813c 49a9 1dbd
000001a0: 3496 f4bc 52d7 81bc 7878 bcbc d430 7b3b
000001b0: 5611 debc a3d4 25bc b8b5 8abc f049 10bb
000001c0: 1606 993c 5420 bf3c db2d 9a3c eed0 01bd
000001d0: 21ce bb3c 08e7 0abd 290f 163b 1010 a03c
000001e0: 0ba7 353a 6f45 efbc e136 14bd b8a8 74bb
000001f0: 377d 4b3c 3fd0 eaba f61d d3bb ca3a e5bc
00000200: c696 0e3c 62f8 d1bc 3e76 45bc 5abf eebb
00000210: ac0d 34bc 89cb 2d3d 6d50 a73c fb64 883c
00000220: dab5 86bb 138a 45bc ae45 893c 8b18 eb3c
00000230: de8c ba3c be1a 8a3c b1b3 803c e6a0 993b
00000240: 414f 86bc 93c0 09bc 07a0 f2bc bbe9 f9bc
00000250: af94 4c3a 75b0 e9ba c6a4 f33c 911a 9e3c
00000260: 3e1e beba 1b8c f33b 049b 843c 9c41 b2bc
00000270: 47ab 1b3b 7300 0b3c f5b9 dab8 0a6f 473c
00000280: ae60 133d 8808 a73c 5352 933c dc80 183a
00000290: 54eb a2bc 7e06 863c 34ce 7ebc 130b e8bc
000002a0: fcd4 c1bc e03f 12bb e57f 5abc f1df 613c
000002b0: b462 583c 3e29 813c 6e78 9dbc b279 e9bc
000002c0: d062 823b 2f01 05bd 1f9a b33c 42d3 0abb
000002d0: d369 0c3b 1f58 8c3c 3eb3 783c 78f5 cfbc
000002e0: aede 393c 485f 80bb 957e debc 1d9f e43a
000002f0: 543e 2a3d b8ba 0c3d 5631 133d 4654 253d
00000300: bb3d 973c 05e4 743c 5a17 933c f1c9 acbc
00000310: c9ba 813c 4682 403c c982 81bc f0d7 76bc
00000320: a050 a3ba 926e d43c b006 00bd 5690 813c
00000330: 9ab6 c83c 1652 933b a37b 68bb 646c 023d
00000340: 8d31 f93c 489c 31bd cf69 0fbd 4470 3bbb
00000350: be88 aaba 03af 2ebc 65c1 7b3c 548d 533c
00000360: bcb3 7abb 49e6 a6bb fd69 19bc 67b1 31bb
00000370: a63f bf3c 431d bf3c cd5d 92bc 94e8 30bb
00000380: 46ca 093d 8a81 97bc 11b7 603b e185 e3bc
00000390: cb1f 843b 843e 163d 8a31 c83b 6efd 1b3c
000003a0: c632 edbb fbdd 183b 7b3d 4abb b51d 32bc
000003b0: ed94 02bd c217 de3c 0476 333c 943e 97bb
000003c0: d9d1 40bd 04bc 073c 8125 a83c 0577 a93b
000003d0: 90f8 82bc 09ba 4ebc d466 63bc afe7 e03c
000003e0: 56ad 74bc 4a5e f03c 327f 8bbc 30fe d03c
000003f0: 1353 5aba cf7a 1dbb 98a4 0a3d c4dc 963c
0.0320415 0.010710686 -0.03167454 -0.013697518 -0.022047725 0.0032641627 -0.030559188 0.020583682
0.010528438 0.0020089261 -0.02415151 0.025523305 0.021294016 0.030369775 -0.008510948 0.015368094
0.02091761 0.030549835 -0.0001328364 0.013870228 0.013103131 0.006759174 -0.006194029 -0.022723462
0.022637825 -0.019610666 -0.020499226 -0.029974172 0.016799144 0.0019719228 0.025816485 0.009183846
0.005940981 0.02313812 -0.02609257 0.016150316 -0.024460673 0.024487384 0.022961324 0.03353651
0.0045105233 0.009031606 0.012453238 0.03301845 -0.0041657416 -0.02367634 0.02529077 -0.025890935
-0.00089556497 -0.0067336536 0.029980961 -0.0324693 0.021172088 -0.018801093 0.020534098 0.014979836
-0.009030441 -0.03382982 -0.0041565634 -0.0069909645 -0.028280763 0.026301665 -0.018116506 0.0014163088
-0.02420183 0.025484404 0.03403436 -0.029105783 0.029221674 0.029654734 -0.0063938512 0.012648722
0.027227035 -0.016029656 -0.009665925 -0.012781874 0.014625448 0.02173855 -0.025081757 0.024878763
0.024179291 0.008884605 0.024642423 0.014650188 0.027506288 -0.022246545 -0.01118293 -0.026506139
0.015140059 0.013175763 0.024794322 0.003782575 -0.017048594 -0.007307971 0.03311126 -0.0041899635
0.023324614 0.002968825 0.00869945 -0.026449887 0.02493196 -0.013219435 0.015771369 -0.03849152
-0.029856779 -0.015849743 -0.023006663 0.0038328664 -0.027107876 -0.010121497 -0.016932353 -0.0022016726
0.01867966 0.023330845 0.018820694 -0.03169339 0.022925438 -0.033911735 0.002289722 0.01953891
0.00069294934 -0.029207913 -0.03618515 -0.003733201 0.01241999 -0.0017914845 -0.0064427806 -0.027982134
0.008702939 -0.025631133 -0.012052117 -0.0072859945 -0.010989588 0.042430434 0.020424092 0.016649714
-0.004111034 -0.012056845 0.016756859 0.028698226 0.022772249 0.016858455 0.015710684 0.00468837
-0.016395213 -0.00840773 -0.029617323 -0.03050696 0.0007804138 -0.0017829078 0.029741656 0.019299777
-0.0014504862 0.0074324734 0.016187198 -0.0217598 0.0023753212 0.008483994 -0.00010429687 0.01217247
0.035980873 0.02038981 0.017983591 0.00058175414 -0.019887604 0.016360518 -0.015552092 -0.028325593
-0.02366113 -0.0022315904 -0.0133361565 0.013786302 0.013207126 0.015766736 -0.019222464 -0.028500412
0.0039790645 -0.032471832 0.021924077 -0.0021183048 0.002142538 0.017131863 0.015179453 -0.025385603
0.011344595 -0.0039176084 -0.027159968 0.0017442439 0.041563347 0.034357756 0.035935722 0.040363573
0.018462053 0.014946942 0.01795547 -0.021092387 0.015836136 0.01174981 -0.015809434 -0.015066132
-0.0012459941 0.02593163 -0.031256378 0.015815895 0.024501134 0.0044958694 -0.0035474084 0.03184165
0.030419135 -0.043361932 -0.035013016 -0.002860085 -0.0013010723 -0.010661843 0.015365933 0.012912113
-0.0038254103 -0.00509337 -0.0093636485 -0.0027113797 0.02334578 0.023329383 -0.017866993 -0.0026994096
0.03364017 -0.018494386 0.0034288804 -0.0277738 0.0040321103 0.036680713 0.006109421 0.009520872
-0.0072387187 0.002332567 -0.00308594 -0.0108713405 -0.031880308 0.027110938 0.01095343 -0.004615614
-0.047075126 0.0082845725 0.020525696 0.005171659 -0.015987664 -0.012617596 -0.013879497 0.027454225
-0.014933905 0.029341836 -0.017028425 0.025511831 -0.0008328419 -0.0024029498 0.033848375 0.018415816

input.bias f4 [64]
00000000: 3b7b a0bc f86e 9b3d f046 d73d 809e dabb
00000010: 865e 0a3d 1163 89bb 2af7 c03b b87d 82bc
00000020: 14da d73c b950 e7bc f170 8bbd 97a5 a53c
00000030: a52d 083d 2b6b 833c 402f 533d 86ef 293d
00000040: 7b35 383c 1638 10bc d521 0d3d 9aa6 19bd
00000050: 13ea 333c f9e9 fcbc 4870 72bd 5e9a 2ebd
00000060: 0ac1 253d 15f1 bb3d e515 0ebd 1ab1 783d
00000070: 18e7 463d e889 80bb 1c46 3b3c 5f7e a13c
00000080: bcda 6abc d575 763d b4a8 953d fa83 b73c
00000090: 77bf 213d 14d0 843c dc40 b53d 0c23 0fbd
000000a0: 2742 39bc ac2d c2bc fc1e 0c3d 782a 51bd
000000b0: 9be8 f13c 3208 443d e30d 283c 7441 933d
000000c0: 83cb 85bc ed35 db3c 767d 90bc d112 553d
000000d0: 1962 a63c 3921 043d 8a34 88bd a941 01bd
000000e0: 3ab2 7f3d 7a14 813d 1eff c0bc e86d c73c
000000f0: d35e f33b f6fe eeba 43f0 9a3d 95e0 ad3d
-0.01959001 0.07589525 0.10511577 -0.0066717267 0.03378155 -0.004192718 0.0058888393 -0.015929088
0.026349105 -0.028236734 -0.06808651 0.020220561 0.033246655 0.016042313 0.051558733 0.041488193
0.0112432195 -0.008802434 0.034456093 -0.0375124 0.010981101 -0.030873286 -0.05918911 -0.042627685
0.0404673 0.09176842 -0.03468885 0.060715772 0.048560232 -0.0039226897 0.01143029 0.019713579
-0.014334377 0.060170967 0.07307568 0.022401799 0.039489236 0.0162125 0.088502616 -0.034945533
-0.011307276 -0.023703419 0.034209237 -0.051065892 0.02952986 0.04785938 0.010257217 0.071902186
-0.016332394 0.026759112 -0.01763795 0.052019898 0.020310448 0.032258246 -0.06650646 -0.03155676
0.06242583 0.06302734 -0.02355915 0.0243444 0.0074270754 -0.0018233943 0.075653575 0.08490101

fc1.weight f4 [32, 64]
00000000: ba38 e33d 4575 82bc d81d 1b3e c79a 673e
00000010: f29b b63d cb0d b3bd 55ad e8bd 32e4 83bd
00000020: 2e9f a3bd 9162 61bd df31 03be 92ec f4bd
00000030: 1b95 913e 5b30 01be 2d65 c0bd 0b93 8f3e
00000040: b63b 1ebe 81e8 b63d e327 75bd e716 7dbc
00000050: 6b63 64bc 5ba8 413d f73f cbbb 2de5 6b3e
00000060: d2a3 9cbd 3d7e a53e 676b f8bd 3622 04be
00000070: 2fb4 003e 7198 c73d 9000 0fbd d359 0dbd
00000080: 6366 48bd e583 cfbd 01e8 9c3d c036 7f3d
00000090: 665e e1bd b1aa a0bc 24c7 283e 26bb ce3d
000000a0: b3e8 323e b133 bcbd b8a7 22bd a795 9e3b
000000b0: 8aa3 223e 623b a53d 8bc2 493e a2a4 863a
000000c0: e55f a6bd 6099 1dbd d576 96bd 4702 983e
000000d0: 71ce ce3b da92 353d b53f 8e3b 4a70 f6bd
000000e0: 4d38 103e 6217 46be d7c3 72bd d90d bcbc
000000f0: b2d5 1a3d 4960 9cbd e4c1 0c3e 1685 2bbe
00000100: 86c7 ecbd a630 c3bd 3ab0 8a3e ab68 bbbb
00000110: 4c13 233e 2195 3b3d 90c6 a6bc d0d2 8e3d
00000120: 52f9 3d3e f6f1 5fbc dcae 233d 9228 5f3c
00000130: a780 743e ac80 623e 3379 d7bb 9ff1 2f3e
00000140: 48a8 393d 2c6c 7bbd 9d79 e0bd 8880 c1bd
00000150: a23d 4c3d e707 53bd b5e4 ff3d 8347 1a3d
00000160: 740c 703d 0d93 633d e27e 2cbe 64ba cabb
00000170: 9a6d cebc 57b1 813d 23af c03d 6e5c 00bd
00000180: 4ac3 1bbd 5365 adbd 81e7 c43d 35e3 2c3a
00000190: b64f 373e c89b 713e 41f7 073e 5a5c d63d
000001a0: 4441 8dbd db6f 35bd 8794 1dbe 30ba 883e
000001b0: 7159 9abd ba11 9dbd 330c 50be 81f3 94bd
000001c0: 19aa a4bd 7fc0 64bd a094 b43d 515e 253e
000001d0: 1f17 363e 3392 2d3c 1dec 1abd a635 adbd
000001e0: ccb6 11be 175c 39be 48a1 87bd 9cc0 b7bd
000001f0: 1f11 3abb 6c29 7e3b 6702 dbbc 7d3e 87bd
00000200: a540 053e 1179 193e 1eff 99bd a19d 1cbd
00000210: 907a 31bb 4c68 1dbb 74ee 8ebb 70c7 563d
00000220: efb4 8e3d 3ce3 cdbd c55c e33d 31bd ff3d
00000230: 8350 32be 715e 243e 56d5 003e 87e3 22bd
00000240: 5b5b 8c3d b298 fdbd 91d1 93bd 954e 29bc
00000250: 3e4c 8bbd e222 c0bd 202d ef3c d98d a7bd
00000260: 5ef5 373e e7d8 0d3e 1d51 5a3e d121 963d
00000270: da15 eb3d 95c3 273d cbd4 253c 764e ba3d
00000280: 4c03 763d e763 a73d 4666 eabd 75ce e23d
00000290: e073 3d3d 2f7f 373d 2edb e7bd 5bed 80bd
000002a0: d0c1 083d 16b0 38bd f0e7 2b3d b4d9 ffbd
000002b0: a501 393c 8217 463d e8ba 0c3e d123 033e
000002c0: 78de c1bd 793e fa3b 006f e43d 8e10 d2bc
000002d0: 75fd abbd 0dd7 953d 29ce 53ba ade1 46bd
000002e0: 90ae d7bd 87d8 203e a86f d9bc e2fe be3d
000002f0: 9d7c c53d 73b3 d93d 8e23 05bc 5b45 4a3e
00000300: 40f3 14be 3b2b 32be 1fa1 643b 3851 783e
00000310: d7c5 de3d c637 81bd 839f 99bd 6b64 34ba
00000320: e68a 16be 39b3 82bd 57f2 c63d f421 343e
00000330: 6c6d 2f3d 357a 853d 78b0 ba3d f8ba b63e
00000340: 908e f63c 9885 9d3d 0cc6 593d 435b ec3d
00000350: 22e0 aabc 55f0 d2bd 694a a53d c7f6 993e
00000360: 658a 63be db28 523e 504c b83e 2a06 1cbe
00000370: cc92 c9bd 6a41 4d3e 12b8 bbbd aeaf d8bc
00000380: 95a5 7abd 8fe6 ebbd 532a e63d 7e59 8ebc
00000390: e0e9 203e bedb 47bd ecc7 f33d 4b00 083c
000003a0: 97dd 1ebd 019f d6bd bde0 3d3e fa73 a0bd
000003b0: a7a0 903e a363 4c3e aea1 1cbe 2eea 733e
000003c0: f87c bcbd 8d58 b73c acea e83c fbd4 a13d
000003d0: 79d2 a33d af17 a23c 6269 393e 288a 03be
000003e0: 3020 a43d b368 693d 45b1 063e c271 14be
000003f0: 5de2 bbbd 043c 693d 9147 313e 0a64 52bc
0.11094804 -0.01592506 0.15148103 0.22617637 0.08916463 -0.08742865 -0.113611855 -0.06440009
-0.079893455 -0.05502564 -0.12811993 -0.11959185 0.2843407 -0.12616102 -0.09394298 0.28041872
-0.15452465 0.08931065 -0.059852492 -0.015447355 -0.013939719 0.047279697 -0.0062026936 0.23036642
-0.07648434 0.32322875 -0.1212986 -0.12903675 0.12568735 0.09745873 -0.034912646 -0.03450949
-0.04892577 -0.10132579 0.07661439 0.062308073 -0.11004333 -0.019612642 0.16482216 0.100942895
0.1747158 -0.09189547 -0.03971073 0.0048396173 0.15882698 0.08067967 0.19703119 0.0010272453
-0.08123759 -0.038476348 -0.07346884 0.29689237 0.006311231 0.0443295 0.0043410906 -0.12033136
0.14083977 -0.19344857 -0.0592688 -0.022955822 0.037801452 -0.076355524 0.13745838 -0.16749987
-0.115614936 -0.09530763 0.27087575 -0.0057192645 0.1592533 0.045796517 -0.020358354 0.06973803
0.1855214 -0.013668528 0.03996168 0.013620513 0.23877202 0.22119397 -0.0065757274 0.17182015
0.0453265 -0.061382458 -0.10960696 -0.094483435 0.049863465 -0.051521208 0.12494794 0.037665855
0.058605626 0.05556016 -0.16845277 -0.0061867703 -0.025198746 0.06332653 0.09408405 -0.031338148
-0.03802804 -0.08466592 0.09614468 0.0006595136 0.17901501 0.23594582 0.13277914 0.104668334
-0.06897214 -0.044296127 -0.1538869 0.2670455 -0.07536591 -0.07669397 -0.20317154 -0.07273007
-0.08040256 -0.05584764 0.088174105 0.1614926 0.17782257 0.010593939 -0.03782283 -0.08457498
-0.14229888 -0.18101536 -0.06622559 -0.08972284 -0.0028391553 0.0038782014 -0.026734544 -0.066037156
0.13012941 0.1498759 -0.07519363 -0.038236264 -0.002708111 -0.0024018465 -0.004361922 0.052436292
0.06968104 -0.10053107 0.11101679 0.12487257 -0.17413525 0.16051652 0.12581381 -0.03976777
0.06853362 -0.1238264 -0.07217706 -0.010333677 -0.068016514 -0.09381653 0.029196322 -0.08181352
0.17964694 0.13852273 0.21320005 0.07330669 0.11478777 0.040958006 0.010121535 0.090969965
0.060061738 0.08173352 -0.11445288 0.11074535 0.046253085 0.044799026 -0.11321102 -0.06295272
0.03338796 -0.045089804 0.04196924 -0.124926955 0.011291896 0.048362263 0.13743174 0.12806632
-0.09466261 0.007636842 0.11153984 -0.02564266 -0.083979525 0.07316408 -0.00080797315 -0.048555065
-0.10531342 0.15707599 -0.0265425 0.09325959 0.09642909 0.1062993 -0.008126153 0.1975302
-0.14545918 -0.17399304 0.0034886075 0.24249732 0.10877579 -0.06309466 -0.075011276 -0.00068814185
-0.14701423 -0.0638184 0.097141914 0.17591077 0.042828962 0.0651745 0.0911569 0.3568952
0.030097276 0.076914966 0.053167388 0.11540844 -0.020858828 -0.10299746 0.08070833 0.3007109
-0.22220762 0.20523398 0.35995722 -0.15236726 -0.098424524 0.20044485 -0.09165968 -0.026450958
-0.061193068 -0.11518585 0.112385415 -0.017376658 0.15714216 -0.048793547 0.119033664 0.008300851
-0.038785543 -0.10479546 0.18542762 -0.07834621 0.28247568 0.19959883 -0.15296051 0.23819801
-0.092035234 0.022381091 0.028432213 0.07901951 0.07999129 0.019786684 0.18106607 -0.12845671
0.08013952 0.056984615 0.1315356 -0.1449652 -0.09174035 0.056942 0.17312457 -0.012841234

fc1.bias f4 [32]
00000000: 4feb 013e 5f1a 6dbc 549b 863d 0674 0bbc
00000010: c384 ea3d 9e13 eb3d f321 41bd f3b8 153e
00000020: ca72 973d 95c9 28bd dbcc d7bd 76eb f53d
00000030: 320c cdbd 8dcf 2f3e 2981 7abc 1a0f 473e
00000040: 70f5 3abb b269 edba b793 883d dfa9 92bd
00000050: d85a 4abd d51d 173e 73c3 f1bd e50a 303d
00000060: 1f05 fb3d 8498 2a3e 0c4d f23d a110 ff3d
00000070: a0ee c3bc b032 8cbd 222d 473e a635 c73c
0.1268742 -0.014471619 0.06572595 -0.008511549 0.114511035 0.11478351 -0.047151517 0.14621334
0.07394941 -0.04120787 -0.1053712 0.12007801 -0.10012092 0.17169018 -0.015289583 0.19439355
-0.002852764 -0.0018113165 0.06668799 -0.071613066 -0.04940304 0.14757474 -0.11804857 0.04297914
0.12256836 0.16659743 0.11831102 0.124543436 -0.023917496 -0.068456054 0.1945081 0.024317574

fc2.weight f4 [32, 32]
00000000: 7c46 46be a20c 283d d463 83bd 6a05 ae3d
00000010: f80c 1cbd 1fa2 443e e66d 653e a036 28bd
00000020: e624 4a3e 8097 a03e 1849 0dbe 1d29 3bbe
00000030: 81cc c0bd 79fb 54bc 2744 203e 9e6b 05be
00000040: 38a1 c6bc 1f24 28be 2531 9bbd 39bf 00be
00000050: 685b dabd 07d2 9b3e e3e4 0cbd 8e1c 713e
00000060: 9bc2 fa3d 26ef 713d 8849 183e 452b e53d
00000070: e230 ea3d 19ce 623d 9c92 3e3e 6cc8 0abe
00000080: aa06 463e cdf8 4dbe c7d4 d43d ddb4 983e
00000090: a16d 343e 4a58 4d3e 0740 77bd 04da 2ebe
000000a0: aa51 053e b12b bebd f4ec 1a3e 3361 09be
000000b0: 1955 04be 0760 d8bc a8e1 9abd 5219 0cbd
000000c0: 939c 5c3e 3d3e b23d 8bc1 8cbe 399b 34be
000000d0: e9a9 d73d d72a 64bd 5d41 053e aca3 20be
000000e0: 19f5 15be 6a0c e03c b791 14be b5e4 d2bb
000000f0: 8c9e 2e3e f3ce bebd 3e1a 0f3e 80e4 8f3e
00000100: 4b57 f6bc 6b34 533b f49a 27bd a9a8 20be
00000110: 0090 853d b098 11bd 2fe6 603d 0e99 4f3c
00000120: 20a9 edbd 95a1 35bb 0887 903d a9c0 19bd
00000130: b626 fdbd 1a5e 05be 1828 003c 2c1d 033e
00000140: a94f 223d ee07 9b3d 89b0 08bd 14cd cc3d
00000150: b60b a4bc 341e 14bd 0031 f4bc 9db5 d53d
00000160: e547 f6bd 3ec1 dbbd 52ab d53d 78bf 34be
00000170: 576f a1bd da24 dfbd 86ac 7f3c b582 093e
00000180: 63ff 633e ca59 2fbe dd61 d63d 584d ce3d
00000190: 7408 723e 8899 513b 28fb 543e 2778 0bbe
000001a0: 4a32 c13c 50f1 e13d 22ac 1dbe 75e6 463d
000001b0: 78d8 573d af70 9d3d 443c 603d 82c2 6dbd
000001c0: 1557 313e edcd acbd 3afd e0be 15ad 47be
000001d0: 1f60 dc3d ffe0 0c3e 7e36 e03d 7b40 393e
000001e0: 0433 e83d 56e2 81be e7c0 fa3d d4b8 07bd
000001f0: b949 babc d796 c4bb d311 c33d 997d 843d
00000200: 9434 f8bc 676b 64be eeae 383d b8a7 e1bd
00000210: 2ed6 1a3c 08b9 7cbe f432 d5bd e24f 123e
00000220: a80b 19be 2a84 163d 864c fd3d 6001 7bbe
00000230: a8d1 2f3e 6872 f03d e4b3 f2bd 891a aa3d
00000240: 9c62 213b 81cd e5bd 1523 8a3e e098 e13c
00000250: 051f 4d3e 8ba9 07be 7a41 5fbd 7fae c3bd
00000260: 520a 32be 607f f23d d42b 3b3e 23fa 293d
00000270: bf48 d9bd d799 64bc 8b63 4c3e c3f9 94ba
00000280: 911a 6b3d 2557 5bbc 15df d73d f576 5c3e
00000290: 0e72 a8bd ab14 743e 2503 babe 2141 df3d
000002a0: ecc4 423e 62a7 68be ade9 1dbe af4f b93e
000002b0: c05a e0bd b709 debd 2b47 15be 788b 283d
000002c0: c489 483e b37c a83d bca8 083d 7181 acbd
000002d0: a766 b93d 4149 04be b8ce f93d f371 143e
000002e0: 647e a03d 85b3 cebd 2f89 4abc 4c64 8b3e
000002f0: 252d dcbd ab08 023e 7e34 37be c58a 2b3e
00000300: ecec a5be eef2 c6bd fa45 723e dd41 a03e
00000310: e044 02be b047 fbbd 0dea 163d 9068 2e3e
00000320: 5e23 643d 0cd0 6c3d 12d5 b0bd 325d 83be
00000330: 6653 fb3b 9db2 853e 9e9f dc3d b969 78bd
00000340: 6dae 413e 844b b53d 4680 843e ce66 553e
00000350: 851d 493e 6f8b ba3d 6013 03be 3490 213c
00000360: 69bb 13be 43c1 fc3e 2322 1bbe 1d47 833e
00000370: 334e c43d a33e 703d 9837 fb3d 1d4d 123d
00000380: 84c0 4b3e 9a3c bc3e 7c76 90bd 1c6c b63e
00000390: 6e1f 823e cd11 a8bd 63d4 6d3e 2f83 ee3d
000003a0: 2039 e63d 46fd d73b efd4 76bd 002d 55be
000003b0: 9aee 2a3e d233 b6bd 34eb 18bd 63c5 84be
000003c0: 0689 e43b 22ab 0ebe 09eb 76bc 5199 783e
000003d0: 197a 143e 3231 d1bd 5c6e 233d 4a3a 0d3e
000003e0: 72d2 803d aa7c dd3d f82d 0e3e 5292 93be
000003f0: 256a 3b3d 663b 82bd a8c0 8c3e c203 2d3e
-0.19362825 0.041027673 -0.06415525 0.084971264 -0.038098305 0.1920247 0.22405204 -0.04106772
0.19740638 0.31365585 -0.13797414 -0.18277402 -0.09414006 -0.012999409 0.15650998 -0.13029334
-0.024246797 -0.16420029 -0.07577733 -0.12572946 -0.106619656 0.30433676 -0.03439797 0.23546049
0.12244149 0.05906596 0.148718 0.11189894 0.11435105 0.05537233 0.18610615 -0.13553017
0.1933848 -0.20114441 0.103921466 0.29825488 0.17619945 0.20053211 -0.060363796 -0.17075354
0.13019434 -0.09285677 0.15129453 -0.13415985 -0.12923087 -0.026412977 -0.07562572 -0.034203835
0.21544103 0.08703277 -0.27491412 -0.17637338 0.10530455 -0.055704918 0.13013215 -0.15687436
-0.14644279 0.02734967 -0.14508711 -0.0064359554 0.17052668 -0.09316816 0.13974854 0.2810402
-0.030070921 0.0032227288 -0.04091926 -0.15689339 0.065216064 -0.035546005 0.05490702 0.012670768
-0.11604524 -0.0027714719 0.07057005 -0.03753725 -0.12360899 -0.13024178 0.007822059 0.12804097
0.03962675 0.07569872 -0.033371482 0.10000053 -0.020025115 -0.036161616 -0.029808521 0.104350306
-0.120254315 -0.107302174 0.104330674 -0.17651165 -0.078825645 -0.10895701 0.015605098 0.13428767
0.22265391 -0.17124096 0.10467885 0.10073346 0.23636037 0.003198238 0.20798934 -0.13620053
0.02358355 0.11032355 -0.15397695 0.048559625 0.052696675 0.07687508 0.054744974 -0.058046825
0.17318375 -0.08437715 -0.43943197 -0.1949962 0.10760521 0.13757704 0.109478936 0.18091004
0.113378555 -0.25367993 0.122438245 -0.03313525 -0.022740232 -0.005999427 0.09524884 0.06469268
-0.030298509 -0.22306596 0.0450887 -0.11018318 0.0094504785 -0.24679959 -0.10410109 0.14288285
-0.14945853 0.036747135 0.12368111 -0.24512243 0.17169821 0.11740571 -0.11850718 0.083058424
0.0024625426 -0.112208374 0.2697989 0.027538717 0.20031364 -0.1324827 -0.054505803 -0.09554767
-0.1738675 0.11840701 0.18278438 0.041498315 -0.10609578 -0.013952694 0.19959848 -0.0011365939
0.057398383 -0.013387476 0.105405964 0.21529754 -0.08224879 0.23836009 -0.36330524 0.10901094
0.19020432 -0.22720101 -0.15421171 0.36193606 -0.10954809 -0.10841697 -0.1457793 0.041148633
0.19583803 0.082269095 0.033364043 -0.084231265 0.090527825 -0.12918569 0.121976316 0.14496593
0.07836607 -0.100928344 -0.012361809 0.27224958 -0.10750798 0.12698619 -0.17891118 0.16752155
-0.3240732 -0.09714304 0.23659506 0.3130025 -0.12721586 -0.12269533 0.036844302 0.17032075
0.05569779 0.057815596 -0.0863439 -0.2565704 0.007669854 0.26112834 0.10772632 -0.0606477
0.18914194 0.08852294 0.25879115 0.20839998 0.19640167 0.09108626 -0.1280036 0.009861041
-0.1442696 0.49366197 -0.15149741 0.25640193 0.09585228 0.058653485 0.12266463 0.035718072
0.19897658 0.36764985 -0.07053849 0.35629356 0.25414604 -0.0820652 0.2322555 0.11646115
0.112413645 0.006591472 -0.060261663 -0.20817947 0.16692582 -0.08896603 -0.037333682 -0.25931844
0.0069743423 -0.1393247 -0.015070685 0.24277236 0.14499702 -0.102144614 0.03990017 0.13791767
0.06290139 0.108147934 0.13884723 -0.2882257 0.045755524 -0.063589856 0.27490735 0.16895965

fc2.bias f4 [32]
00000000: 8fa1 0c3e d9d8 0d3e 9d3a 32bd bfd1 3e3d
00000010: 3cdb 673e d5c0 97bd 5c40 623e d976 a3bd
00000020: 933d 433d 962e 5e3e 3960 1bbe adb1 6ebd
00000030: 2e29 a3bd 57c0 1a3e c3f9 ab3e 3c28 5dbd
00000040: b0e4 743d 527f 913d e472 1f3e 4553 20bd
00000050: d16a 32be 04a8 a63e 9bb4 073d a10a 02be
00000060: 7f14 05bd f4c3 293e 6765 923e 8991 d4bd
00000070: c0ae 84bd 2a60 a0bd 661d 4abd 7c9e 03be
0.13733505 0.13852252 -0.04351293 0.04658675 0.22642225 -0.07409827 0.22094864 -0.07981653
0.047666144 0.21697459 -0.15173425 -0.058274914 -0.07966839 0.15112434 0.3358899 -0.05399345
0.059788406 0.071043625 0.15571171 -0.039141912 -0.1742356 0.3255006 0.033131223 -0.12699367
-0.03249025 0.16578656 0.2859299 -0.10379321 -0.064786434 -0.07830842 -0.049344443 -0.12853426

output.weight f4 [10, 32]
00000000: b800 e1bd 15f7 aa3e 45eb ad3d 27ab bb3e
00000010: bdd7 c9bd 23e3 7a3e 632b 0dbf e71d 9f3e
00000020: ed5c d0be 017d 633e 3a9f f4bd 77bc 1bbe
00000030: f08c 8dbd ac54 febd 6f8e 11be fe93 4e3e
00000040: c0a4 9cbd 3148 cb3e 2d0b 823e a9d0 89bd
00000050: edcd eb3d 180c 8abe 5748 b63e a3ea 1f3d
00000060: f7f7 3f3d edeb c83c f4c2 01bf 438f 29be
00000070: d3d3 43be cc70 a13e 7a72 2d3e 9495 263d
00000080: 345f e0bd 31a0 b0bd 1a0e 053d 441f 62bd
00000090: 0c6c 9c3e 8a4d 74bc 4202 ed3e f8c3 f1be
000000a0: 7651 ad3d a9b3 0cbf 7a62 80be e1a8 97bc
000000b0: 55c0 bf3b 9eb2 eebe bbbd e33e 6d37 a0be
000000c0: 8961 403d 215a 35bd 5348 123d a72e 963d
000000d0: 7f32 e93b e20b a63e 605e 1d3e fb5a 7f3b
000000e0: 143c 53bd c349 923e 5107 dc3e 2808 eb3c
000000f0: 21be 413e da4d cc3d 4a36 afbd e8f0 b53d
00000100: a819 ebbe a55e 613d c19e 09be 34c1 abbd
00000110: d9d5 9f3e e95e 8e3e b769 f43d a2e3 303e
00000120: de48 d93e 52ce c6bd 0c48 cbbd 2c93 e3bd
00000130: 5f5c 1b3e 4ec5 6dbe 1d23 b53d cef1 0f3f
00000140: f09d bc3e 4eae c13c 6475 a13d 6b4b 8dbd
00000150: 013f 223e 6592 74be e6bb d5bc ec75 2f3e
00000160: 261b ffbc cd6b 05bf a3cb 9dbe 3eb9 2cbe
00000170: 543b 1b3e fe06 59be 2961 533d 2ac4 1ebe
00000180: 7e95 8a3d 0ec1 783e d6a3 21be 9ef3 4bbd
00000190: 47e2 94be bf1f a93e 96ac ba3e a93f 7abd
000001a0: 339c 24bd c770 103e b7d3 073e 755f 943e
000001b0: 0cd6 e03d e0e7 ecbe 0442 523e 9150 e03e
000001c0: 9ce4 f4be ad15 543e 58cf 053e e548 fc3c
000001d0: f571 fcbd 6f61 523e 7526 88be 89bc a5bc
000001e0: f475 70bd e4cd a4bd 3f7a e13d d05f 893c
000001f0: 3d22 a7be 327d 4abd daae 0ebe 763f f23d
00000200: a3d5 6d3e d778 d9bc 86a0 fdbd 207d 67bc
00000210: 30cf 953e 1404 b6be 0910 593e 4fad a23e
00000220: d481 313e df33 38be 305d db3e 15d9 473e
00000230: 5ec9 10be c1cc c73e 1ef4 2abe a9a9 dcbe
00000240: 2aa1 1cbd 473b 0ebf c0aa 8bbd e01b 153e
00000250: 6f4d 10be b8ec 18bd 5eea 843d 116f b6bd
00000260: 8ac5 973d b084 95bd be19 b73d d2f4 77bd
00000270: 1dfb 6fbe fb0f 693e ddc4 0c3e 97b2 893e
00000280: 59de b53e d758 f2bc 1c90 03bd 5c7e 713e
00000290: 94ed 54bd a39a 3cbd 5067 5cbe 3335 0a3e
000002a0: 250c 1cbe 2593 4d3e 33a5 8ebe b627 363e
000002b0: f465 0dbe 3c0b e7bd 51fd 22be d123 083e
000002c0: a252 17be c124 ed3e b2f2 bbbe 6251 0fbe
000002d0: f1f2 d6bd 94fa e3bd 0728 743e b1f9 33bc
000002e0: 047c 333e ee2a 173f 37a6 07bd 600a 1ebd
000002f0: e1f7 13be 1578 26bc bb1b 043e dca5 c4bd
00000300: ee38 273e 8b30 633e 9ff7 053e 6f64 7a3e
00000310: 4301 94bd 7cfa bfbe f0fb 373e e2eb 6e3e
00000320: 374e 833e 2cf1 22bf 1686 7c3e 2c58 593d
00000330: 3055 023e 39d9 87be 18b6 68be de66 99be
00000340: 9af3 bc3e c5ad 083e e909 a0bd f88b 15be
00000350: 24a3 f7bd d576 9abe 4bd7 793e 62f0 0cbe
00000360: d75f b2bd faf3 223e b50c b7be 30d7 9e3c
00000370: d6ee 823e b68d a23e 5dab 0d3d 9a6a 2f3e
00000380: 11fb 2cbd 6e1f b93c 274c c4bd 3327 0c3e
00000390: 24de eebb a62e 7f3e 2637 a0be 1229 d4be
000003a0: 2c61 80be 6b19 5e3e 9281 9fbe b1bf 2bbe
000003b0: e7a9 863c 89b2 033f c432 a73e 9e9b d8be
000003c0: dff1 a23c 36cc 8ebe 6134 0a3f 44fb 2a3e
000003d0: 1d8c e93d 114d cb3e 22a5 203e 6c59 92bd
000003e0: fd28 2d3e b9b4 41be 8ee9 a13e 80de 75bb
000003f0: 567e 413e 44f0 15be 8b4e 20be 1a7a 003e
-0.10986465 0.33391634 0.0849214 0.36654016 -0.09855602 0.24500708 -0.5514433 0.310775
-0.40695897 0.22215654 -0.119444326 -0.15208612 -0.06911647 -0.12418494 -0.1421449 0.20173642
-0.07648611 0.39703515 0.2539915 -0.06729252 0.115138866 -0.26962352 0.35602066 0.039042126
0.046867337 0.02452656 -0.506881 -0.16558556 -0.19123773 0.3153137 0.169382 0.040669993
-0.109556586 -0.08624304 0.03248415 -0.0552056 0.30551183 -0.014911065 0.46290785 -0.47219825
0.08462803 -0.5496164 -0.25075132 -0.018513145 0.005851785 -0.4662065 0.4448069 -0.31292287
0.046968017 -0.044275407 0.035713505 0.07333117 0.0071166153 0.3243094 0.15368032 0.003896414
-0.051570967 0.285719 0.42974332 0.028690413 0.18920185 0.099757865 -0.08555277 0.0888384
-0.45918012 0.0550219 -0.13439466 -0.0838646 0.3121784 0.27806786 0.11934226 0.17274335
0.42438406 -0.09707321 -0.09925851 -0.11112055 0.15171956 -0.23219797 0.08844588 0.5622834
0.36839247 0.023642685 0.078837186 -0.068991505 0.15844347 -0.2388397 -0.026090574 0.17134827
-0.031140875 -0.52117616 -0.30819425 -0.1686754 0.1515935 -0.21194074 0.05160633 -0.15504518
0.067667946 0.24292395 -0.15785155 -0.04979288 -0.29078886 0.33032033 0.36459798 -0.061095867
-0.040188026 0.14105521 0.13264357 0.28979078 0.10978326 -0.46270657 0.20532995 0.43811467
-0.47830665 0.20711394 0.13067377 0.030796478 -0.12326423 0.2054498 -0.2659184 -0.020231502
-0.05870624 -0.08047083 0.11009645 0.01676932 -0.3264331 -0.0494358 -0.13933888 0.118285105
0.23226027 -0.026546879 -0.12384133 -0.014128953 0.29259634 -0.35549986 0.21197523 0.3177285
0.17334682 -0.17988537 0.42844534 0.19516404 -0.14139315 0.39023402 -0.16694686 -0.4309819
-0.038239636 -0.555592 -0.06819677 0.14561415 -0.14092039 -0.037335128 0.064900145 -0.08907903
0.074107245 -0.07300699 0.08940457 -0.060536213 -0.23435636 0.22760002 0.13746972 0.26894066
0.355212 -0.029583378 -0.032119855 0.23583359 -0.051984385 -0.04604591 -0.21523786 0.13496856
-0.15239008 0.20075662 -0.27860412 0.17788586 -0.13808423 -0.1128144 -0.15916945 0.13294913
-0.14777616 0.46317104 -0.367086 -0.13995889 -0.10495556 -0.11131778 0.23843394 -0.010984824
0.17527777 0.5904988 -0.0331175 -0.038584113 -0.14450027 -0.010160466 0.12901203 -0.09601948
0.1633031 0.22186486 0.13082741 0.24452375 -0.07226803 -0.37495792 0.179672 0.2333217
0.2564561 -0.6364925 0.24660525 0.053062603 0.12727809 -0.26532915 -0.22725713 -0.29961294
0.36904603 0.13347538 -0.0781439 -0.14604175 -0.120916635 -0.30168787 0.24398534 -0.13763574
-0.08709686 0.15913382 -0.35751882 0.019389719 0.25572842 0.31748742 0.034587253 0.17130509
-0.042231623 0.022597995 -0.095848374 0.13686828 -0.007289665 0.24920139 -0.31292075 -0.41437584
-0.25074136 0.21689384 -0.31153542 -0.16772343 0.016438438 0.514443 0.3265592 -0.42306226
0.019890724 -0.27890176 0.53986174 0.16697413 0.114036776 0.39707235 0.15687993 -0.07145962
0.16910167 -0.18916596 0.316235 -0.0037516654 0.1889585 -0.14642435 -0.15654962 0.12546578

output.bias f4 [10]
00000000: 0a93 ccbe cedc 863e f3d0 c2bd 6f56 c8bd
00000010: 755b 9b3d 529d 173e 9dda 22be 4565 0f3e
00000020: df2a 51be 6ae7 80bd
-0.39955932 0.26340336 -0.0951251 -0.09782111 0.075858034 0.14806107 -0.15903707 0.14003475
-0.2042651 -0.06294139
